{
  "format": "layers-model",
  "generatedBy": "keras v3.10.0",
  "convertedBy": "TensorFlow.js Converter v4.22.0",
  "modelTopology": {
    "keras_version": "3.10.0",
    "backend": "tensorflow",
    "model_config": {
      "class_name": "Functional",
      "config": {
        "name": "spaced_repetition_model",
        "trainable": true,
        "layers": [
          {
            "class_name": "InputLayer",
            "config": {
              "dtype": "float32",
              "sparse": false,
              "ragged": false,
              "name": "input_layer",
              "batchInputShape": [
                null,
                51
              ]
            },
            "name": "input_layer",
            "inbound_nodes": []
          },
          {
            "class_name": "Dense",
            "config": {
              "name": "dense",
              "trainable": true,
              "dtype": {
                "module": "keras",
                "class_name": "DTypePolicy",
                "config": {
                  "name": "float32"
                },
                "registered_name": null
              },
              "units": 128,
              "activation": "relu",
              "use_bias": true,
              "kernel_initializer": {
                "module": "keras.initializers",
                "class_name": "HeNormal",
                "config": {
                  "seed": null
                },
                "registered_name": null
              },
              "bias_initializer": {
                "module": "keras.initializers",
                "class_name": "Zeros",
                "config": {},
                "registered_name": null
              },
              "kernel_regularizer": null,
              "bias_regularizer": null,
              "kernel_constraint": null,
              "bias_constraint": null
            },
            "name": "dense",
            "inbound_nodes": [
              [
                [
                  "input_layer",
                  0,
                  0
                ]
              ]
            ]
          },
          {
            "class_name": "BatchNormalization",
            "config": {
              "name": "batch_normalization",
              "trainable": true,
              "dtype": {
                "module": "keras",
                "class_name": "DTypePolicy",
                "config": {
                  "name": "float32"
                },
                "registered_name": null
              },
              "axis": -1,
              "momentum": 0.99,
              "epsilon": 0.001,
              "center": true,
              "scale": true,
              "beta_initializer": {
                "module": "keras.initializers",
                "class_name": "Zeros",
                "config": {},
                "registered_name": null
              },
              "gamma_initializer": {
                "module": "keras.initializers",
                "class_name": "Ones",
                "config": {},
                "registered_name": null
              },
              "moving_mean_initializer": {
                "module": "keras.initializers",
                "class_name": "Zeros",
                "config": {},
                "registered_name": null
              },
              "moving_variance_initializer": {
                "module": "keras.initializers",
                "class_name": "Ones",
                "config": {},
                "registered_name": null
              },
              "beta_regularizer": null,
              "gamma_regularizer": null,
              "beta_constraint": null,
              "gamma_constraint": null,
              "synchronized": false
            },
            "name": "batch_normalization",
            "inbound_nodes": [
              [
                [
                  "dense",
                  0,
                  0
                ]
              ]
            ]
          },
          {
            "class_name": "Dropout",
            "config": {
              "name": "dropout",
              "trainable": true,
              "dtype": {
                "module": "keras",
                "class_name": "DTypePolicy",
                "config": {
                  "name": "float32"
                },
                "registered_name": null
              },
              "rate": 0.3,
              "seed": null,
              "noise_shape": null
            },
            "name": "dropout",
            "inbound_nodes": [
              [
                [
                  "batch_normalization",
                  0,
                  0
                ]
              ]
            ]
          },
          {
            "class_name": "Dense",
            "config": {
              "name": "dense_1",
              "trainable": true,
              "dtype": {
                "module": "keras",
                "class_name": "DTypePolicy",
                "config": {
                  "name": "float32"
                },
                "registered_name": null
              },
              "units": 64,
              "activation": "relu",
              "use_bias": true,
              "kernel_initializer": {
                "module": "keras.initializers",
                "class_name": "HeNormal",
                "config": {
                  "seed": null
                },
                "registered_name": null
              },
              "bias_initializer": {
                "module": "keras.initializers",
                "class_name": "Zeros",
                "config": {},
                "registered_name": null
              },
              "kernel_regularizer": null,
              "bias_regularizer": null,
              "kernel_constraint": null,
              "bias_constraint": null
            },
            "name": "dense_1",
            "inbound_nodes": [
              [
                [
                  "dropout",
                  0,
                  0
                ]
              ]
            ]
          },
          {
            "class_name": "BatchNormalization",
            "config": {
              "name": "batch_normalization_1",
              "trainable": true,
              "dtype": {
                "module": "keras",
                "class_name": "DTypePolicy",
                "config": {
                  "name": "float32"
                },
                "registered_name": null
              },
              "axis": -1,
              "momentum": 0.99,
              "epsilon": 0.001,
              "center": true,
              "scale": true,
              "beta_initializer": {
                "module": "keras.initializers",
                "class_name": "Zeros",
                "config": {},
                "registered_name": null
              },
              "gamma_initializer": {
                "module": "keras.initializers",
                "class_name": "Ones",
                "config": {},
                "registered_name": null
              },
              "moving_mean_initializer": {
                "module": "keras.initializers",
                "class_name": "Zeros",
                "config": {},
                "registered_name": null
              },
              "moving_variance_initializer": {
                "module": "keras.initializers",
                "class_name": "Ones",
                "config": {},
                "registered_name": null
              },
              "beta_regularizer": null,
              "gamma_regularizer": null,
              "beta_constraint": null,
              "gamma_constraint": null,
              "synchronized": false
            },
            "name": "batch_normalization_1",
            "inbound_nodes": [
              [
                [
                  "dense_1",
                  0,
                  0
                ]
              ]
            ]
          },
          {
            "class_name": "Dropout",
            "config": {
              "name": "dropout_1",
              "trainable": true,
              "dtype": {
                "module": "keras",
                "class_name": "DTypePolicy",
                "config": {
                  "name": "float32"
                },
                "registered_name": null
              },
              "rate": 0.25,
              "seed": null,
              "noise_shape": null
            },
            "name": "dropout_1",
            "inbound_nodes": [
              [
                [
                  "batch_normalization_1",
                  0,
                  0
                ]
              ]
            ]
          },
          {
            "class_name": "Dense",
            "config": {
              "name": "dense_2",
              "trainable": true,
              "dtype": {
                "module": "keras",
                "class_name": "DTypePolicy",
                "config": {
                  "name": "float32"
                },
                "registered_name": null
              },
              "units": 32,
              "activation": "relu",
              "use_bias": true,
              "kernel_initializer": {
                "module": "keras.initializers",
                "class_name": "HeNormal",
                "config": {
                  "seed": null
                },
                "registered_name": null
              },
              "bias_initializer": {
                "module": "keras.initializers",
                "class_name": "Zeros",
                "config": {},
                "registered_name": null
              },
              "kernel_regularizer": null,
              "bias_regularizer": null,
              "kernel_constraint": null,
              "bias_constraint": null
            },
            "name": "dense_2",
            "inbound_nodes": [
              [
                [
                  "dropout_1",
                  0,
                  0
                ]
              ]
            ]
          },
          {
            "class_name": "Dropout",
            "config": {
              "name": "dropout_2",
              "trainable": true,
              "dtype": {
                "module": "keras",
                "class_name": "DTypePolicy",
                "config": {
                  "name": "float32"
                },
                "registered_name": null
              },
              "rate": 0.2,
              "seed": null,
              "noise_shape": null
            },
            "name": "dropout_2",
            "inbound_nodes": [
              [
                [
                  "dense_2",
                  0,
                  0
                ]
              ]
            ]
          },
          {
            "class_name": "Dense",
            "config": {
              "name": "dense_3",
              "trainable": true,
              "dtype": {
                "module": "keras",
                "class_name": "DTypePolicy",
                "config": {
                  "name": "float32"
                },
                "registered_name": null
              },
              "units": 16,
              "activation": "relu",
              "use_bias": true,
              "kernel_initializer": {
                "module": "keras.initializers",
                "class_name": "HeNormal",
                "config": {
                  "seed": null
                },
                "registered_name": null
              },
              "bias_initializer": {
                "module": "keras.initializers",
                "class_name": "Zeros",
                "config": {},
                "registered_name": null
              },
              "kernel_regularizer": null,
              "bias_regularizer": null,
              "kernel_constraint": null,
              "bias_constraint": null
            },
            "name": "dense_3",
            "inbound_nodes": [
              [
                [
                  "dropout_2",
                  0,
                  0
                ]
              ]
            ]
          },
          {
            "class_name": "Dense",
            "config": {
              "name": "dense_4",
              "trainable": true,
              "dtype": {
                "module": "keras",
                "class_name": "DTypePolicy",
                "config": {
                  "name": "float32"
                },
                "registered_name": null
              },
              "units": 1,
              "activation": "softplus",
              "use_bias": true,
              "kernel_initializer": {
                "module": "keras.initializers",
                "class_name": "GlorotUniform",
                "config": {
                  "seed": null
                },
                "registered_name": null
              },
              "bias_initializer": {
                "module": "keras.initializers",
                "class_name": "Zeros",
                "config": {},
                "registered_name": null
              },
              "kernel_regularizer": null,
              "bias_regularizer": null,
              "kernel_constraint": null,
              "bias_constraint": null
            },
            "name": "dense_4",
            "inbound_nodes": [
              [
                [
                  "dense_3",
                  0,
                  0
                ]
              ]
            ]
          }
        ],
        "input_layers": [
          [
            "input_layer",
            0,
            0
          ]
        ],
        "output_layers": [
          [
            "dense_4",
            0,
            0
          ]
        ]
      }
    },
    "training_config": {
      "loss": "mse",
      "loss_weights": null,
      "metrics": [
        "mae"
      ],
      "weighted_metrics": null,
      "run_eagerly": false,
      "steps_per_execution": 1,
      "jit_compile": true,
      "optimizer_config": {
        "class_name": "Adam",
        "config": {
          "name": "adam",
          "learning_rate": 0.0002500000118743628,
          "weight_decay": null,
          "clipnorm": null,
          "global_clipnorm": null,
          "clipvalue": null,
          "use_ema": false,
          "ema_momentum": 0.99,
          "ema_overwrite_frequency": null,
          "loss_scale_factor": null,
          "gradient_accumulation_steps": null,
          "beta_1": 0.9,
          "beta_2": 0.999,
          "epsilon": 1e-7,
          "amsgrad": false
        }
      }
    }
  },
  "weightsManifest": [
    {
      "paths": [
        "group1-shard1of1.bin"
      ],
      "weights": [
        {
          "name": "batch_normalization/gamma",
          "shape": [
            128
          ],
          "dtype": "float32"
        },
        {
          "name": "batch_normalization/beta",
          "shape": [
            128
          ],
          "dtype": "float32"
        },
        {
          "name": "batch_normalization/moving_mean",
          "shape": [
            128
          ],
          "dtype": "float32"
        },
        {
          "name": "batch_normalization/moving_variance",
          "shape": [
            128
          ],
          "dtype": "float32"
        },
        {
          "name": "batch_normalization_1/gamma",
          "shape": [
            64
          ],
          "dtype": "float32"
        },
        {
          "name": "batch_normalization_1/beta",
          "shape": [
            64
          ],
          "dtype": "float32"
        },
        {
          "name": "batch_normalization_1/moving_mean",
          "shape": [
            64
          ],
          "dtype": "float32"
        },
        {
          "name": "batch_normalization_1/moving_variance",
          "shape": [
            64
          ],
          "dtype": "float32"
        },
        {
          "name": "dense/kernel",
          "shape": [
            51,
            128
          ],
          "dtype": "float32"
        },
        {
          "name": "dense/bias",
          "shape": [
            128
          ],
          "dtype": "float32"
        },
        {
          "name": "dense_1/kernel",
          "shape": [
            128,
            64
          ],
          "dtype": "float32"
        },
        {
          "name": "dense_1/bias",
          "shape": [
            64
          ],
          "dtype": "float32"
        },
        {
          "name": "dense_2/kernel",
          "shape": [
            64,
            32
          ],
          "dtype": "float32"
        },
        {
          "name": "dense_2/bias",
          "shape": [
            32
          ],
          "dtype": "float32"
        },
        {
          "name": "dense_3/kernel",
          "shape": [
            32,
            16
          ],
          "dtype": "float32"
        },
        {
          "name": "dense_3/bias",
          "shape": [
            16
          ],
          "dtype": "float32"
        },
        {
          "name": "dense_4/kernel",
          "shape": [
            16,
            1
          ],
          "dtype": "float32"
        },
        {
          "name": "dense_4/bias",
          "shape": [
            1
          ],
          "dtype": "float32"
        }
      ]
    }
  ]
}